…
,"user":{"displayName":"Thạch Hoàng Ngọc","photoUrl":"https://lh3.googleusercontent.com/a/default-user=s128","userId":"101752767182448615555"}}},"cell_type":"code","source":["model.summary()\n"],"execution_count":0,"outputs":[{"output_type":"stream","text":["__________________________________________________________________________________________________\n","Layer (type)                    Output Shape         Param #     Connected to                     \n","==================================================================================================\n","input_1 (InputLayer)            (None, 224, 224, 3)  0                                            \n","__________________________________________________________________________________________________\n","conv1_pad (ZeroPadding2D)       (None, 230, 230, 3)  0           input_1[0][0]                    \n","__________________________________________________________________________________________________\n","conv1 (Conv2D)                  (None, 112, 112, 64) 9472        conv1_pad[0][0]                  \n","__________________________________________________________________________________________________\n","bn_conv1 (BatchNormalization)   (None, 112, 112, 64) 256         conv1[0][0]                      \n","__________________________________________________________________________________________________\n","activation_1 (Activation)       (None, 112, 112, 64) 0           bn_conv1[0][0]                   \n","__________________________________________________________________________________________________\n","max_pooling2d_1 (MaxPooling2D)  (None, 55, 55, 64)   0           activation_1[0][0]               \n","__________________________________________________________________________________________________\n","res2a_branch2a (Conv2D)         (None, 55, 55, 64)   4160        max_pooling2d_1[0][0]            \n","__________________________________________________________________________________________________\n","bn2a_branch2a (BatchNormalizati (None, 55, 55, 64)   256         res2a_branch2a[0][0]             \n","__________________________________________________________________________________________________\n","activation_2 (Activation)       (None, 55, 55, 64)   0           bn2a_branch2a[0][0]              \n","__________________________________________________________________________________________________\n","res2a_branch2b (Conv2D)         (None, 55, 55, 64)   36928       activation_2[0][0]               \n","__________________________________________________________________________________________________\n","bn2a_branch2b (BatchNormalizati (None, 55, 55, 64)   256         res2a_branch2b[0][0]             \n","__________________________________________________________________________________________________\n","activation_3 (Activation)       (None, 55, 55, 64)   0           bn2a_branch2b[0][0]              \n","__________________________________________________________________________________________________\n","res2a_branch2c (Conv2D)         (None, 55, 55, 256)  16640       activation_3[0][0]               \n","__________________________________________________________________________________________________\n","res2a_branch1 (Conv2D)          (None, 55, 55, 256)  16640       max_pooling2d_1[0][0]            \n","__________________________________________________________________________________________________\n","bn2a_branch2c (BatchNormalizati (None, 55, 55, 256)  1024        res2a_branch2c[0][0]             \n","__________________________________________________________________________________________________\n","bn2a_branch1 (BatchNormalizatio (None, 55, 55, 256)  1024        res2a_branch1[0][0]              \n","__________________________________________________________________________________________________\n","add_1 (Add)                     (None, 55, 55, 256)  0           bn2a_branch2c[0][0]              \n","                                                                 bn2a_branch1[0][0]               \n","__________________________________________________________________________________________________\n","activation_4 (Activation)       (None, 55, 55, 256)  0           add_1[0][0]                      \n","__________________________________________________________________________________________________\n","res2b_branch2a (Conv2D)         (None, 55, 55, 64)   16448       activation_4[0][0]               \n","__________________________________________________________________________________________________\n","bn2b_branch2a (BatchNormalizati (None, 55, 55, 64)   256         res2b_branch2a[0][0]             \n","__________________________________________________________________________________________________\n","activation_5 (Activation)       (None, 55, 55, 64)   0           bn2b_branch2a[0][0]              \n","__________________________________________________________________________________________________\n","res2b_branch2b (Conv2D)         (None, 55, 55, 64)   36928       activation_5[0][0]               \n","__________________________________________________________________________________________________\n","bn2b_branch2b (BatchNormalizati (None, 55, 55, 64)   256         res2b_branch2b[0][0]             \n","__________________________________________________________________________________________________\n","activation_6 (Activation)       (None, 55, 55, 64)   0           bn2b_branch2b[0][0]              \n","__________________________________________________________________________________________________\n","res2b_branch2c (Conv2D)         (None, 55, 55, 256)  16640       activation_6[0][0]               \n","__________________________________________________________________________________________________\n","bn2b_branch2c (BatchNormalizati (None, 55, 55, 256)  1024        res2b_branch2c[0][0]             \n","__________________________________________________________________________________________________\n","add_2 (Add)                     (None, 55, 55, 256)  0           bn2b_branch2c[0][0]              \n","                                                                 activation_4[0][0]               \n","__________________________________________________________________________________________________\n","activation_7 (Activation)       (None, 55, 55, 256)  0           add_2[0][0]                      \n","__________________________________________________________________________________________________\n","res2c_branch2a (Conv2D)         (None, 55, 55, 64)   16448       activation_7[0][0]               \n","__________________________________________________________________________________________________\n","bn2c_branch2a (BatchNormalizati (None, 55, 55, 64)   256         res2c_branch2a[0][0]             \n","__________________________________________________________________________________________________\n","activation_8 (Activation)       (None, 55, 55, 64)   0           bn2c_branch2a[0][0]              \n","__________________________________________________________________________________________________\n","res2c_branch2b (Conv2D)         (None, 55, 55, 64)   36928       activation_8[0][0]               \n","__________________________________________________________________________________________________\n","bn2c_branch2b (BatchNormalizati (None, 55, 55, 64)   256         res2c_branch2b[0][0]             \n","__________________________________________________________________________________________________\n","activation_9 (Activation)       (None, 55, 55, 64)   0           bn2c_branch2b[0][0]              \n","__________________________________________________________________________________________________\n","res2c_branch2c (Conv2D)         (None, 55, 55, 256)  16640       activation_9[0][0]               \n","__________________________________________________________________________________________________\n","bn2c_branch2c (BatchNormalizati (None, 55, 55, 256)  1024        res2c_branch2c[0][0]             \n","__________________________________________________________________________________________________\n","add_3 (Add)                     (None, 55, 55, 256)  0           bn2c_branch2c[0][0]              \n","                                                                 activation_7[0][0]               \n","__________________________________________________________________________________________________\n","activation_10 (Activation)      (None, 55, 55, 256)  0           add_3[0][0]                      \n","__________________________________________________________________________________________________\n","res3a_branch2a (Conv2D)         (None, 28, 28, 128)  32896       activation_10[0][0]              \n","__________________________________________________________________________________________________\n","bn3a_branch2a (BatchNormalizati (None, 28, 28, 128)  512         res3a_branch2a[0][0]             \n","__________________________________________________________________________________________________\n","activation_11 (Activation)      (None, 28, 28, 128)  0           bn3a_branch2a[0][0]              \n","__________________________________________________________________________________________________\n","res3a_branch2b (Conv2D)         (None, 28, 28, 128)  147584      activation_11[0][0]              \n","__________________________________________________________________________________________________\n","bn3a_branch2b (BatchNormalizati (None, 28, 28, 128)  512         res3a_branch2b[0][0]             \n","__________________________________________________________________________________________________\n","activation_12 (Activation)      (None, 28, 28, 128)  0           bn3a_branch2b[0][0]              \n","__________________________________________________________________________________________________\n","res3a_branch2c (Conv2D)         (None, 28, 28, 512)  66048       activation_12[0][0]              \n","__________________________________________________________________________________________________\n","res3a_branch1 (Conv2D)          (None, 28, 28, 512)  131584      activation_10[0][0]              \n","__________________________________________________________________________________________________\n","bn3a_branch2c (BatchNormalizati (None, 28, 28, 512)  2048        res3a_branch2c[0][0]             \n","__________________________________________________________________________________________________\n","bn3a_branch1 (BatchNormalizatio (None, 28, 28, 512)  2048        res3a_branch1[0][0]              \n","__________________________________________________________________________________________________\n","add_4 (Add)                     (None, 28, 28, 512)  0           bn3a_branch2c[0][0]              \n","                                                                 bn3a_branch1[0][0]               \n","__________________________________________________________________________________________________\n","activation_13 (Activation)      (None, 28, 28, 512)  0           add_4[0][0]                      \n","__________________________________________________________________________________________________\n","res3b_branch2a (Conv2D)         (None, 28, 28, 128)  65664       activation_13[0][0]              \n","__________________________________________________________________________________________________\n","bn3b_branch2a (BatchNormalizati (None, 28, 28, 128)  512         res3b_branch2a[0][0]             \n","__________________________________________________________________________________________________\n","activation_14 (Activation)      (None, 28, 28, 128)  0           bn3b_branch2a[0][0]              \n","__________________________________________________________________________________________________\n","res3b_branch2b (Conv2D)         (None, 28, 28, 128)  147584      activation_14[0][0]              \n","__________________________________________________________________________________________________\n","bn3b_branch2b (BatchNormalizati (None, 28, 28, 128)  512         res3b_branch2b[0][0]             \n","__________________________________________________________________________________________________\n","activation_15 (Activation)      (None, 28, 28, 128)  0           bn3b_branch2b[0][0]              \n","__________________________________________________________________________________________________\n","res3b_branch2c (Conv2D)         (None, 28, 28, 512)  66048       activation_15[0][0]              \n","__________________________________________________________________________________________________\n","bn3b_branch2c (BatchNormalizati (None, 28, 28, 512)  2048        res3b_branch2c[0][0]             \n","__________________________________________________________________________________________________\n","add_5 (Add)                     (None, 28, 28, 512)  0           bn3b_branch2c[0][0]              \n","                                                                 activation_13[0][0]              \n","__________________________________________________________________________________________________\n","activation_16 (Activation)      (None, 28, 28, 512)  0           add_5[0][0]                      \n","__________________________________________________________________________________________________\n","res3c_branch2a (Conv2D)         (None, 28, 28, 128)  65664       activation_16[0][0]              \n","__________________________________________________________________________________________________\n","bn3c_branch2a (BatchNormalizati (None, 28, 28, 128)  512         res3c_branch2a[0][0]             \n","__________________________________________________________________________________________________\n","activation_17 (Activation)      (None, 28, 28, 128)  0           bn3c_branch2a[0][0]              \n","__________________________________________________________________________________________________\n","res3c_branch2b (Conv2D)         (None, 28, 28, 128)  147584      activation_17[0][0]              \n","__________________________________________________________________________________________________\n","bn3c_branch2b (BatchNormalizati (None, 28, 28, 128)  512         res3c_branch2b[0][0]             \n","__________________________________________________________________________________________________\n","activation_18 (Activation)      (None, 28, 28, 128)  0           bn3c_branch2b[0][0]              \n","__________________________________________________________________________________________________\n","res3c_branch2c (Conv2D)         (None, 28, 28, 512)  66048       activation_18[0][0]              \n","__________________________________________________________________________________________________\n","bn3c_branch2c (BatchNormalizati (None, 28, 28, 512)  2048        res3c_branch2c[0][0]             \n","__________________________________________________________________________________________________\n","add_6 (Add)                     (None, 28, 28, 512)  0           bn3c_branch2c[0][0]              \n","                                                                 activation_16[0][0]              \n","__________________________________________________________________________________________________\n","activation_19 (Activation)      (None, 28, 28, 512)  0           add_6[0][0]                      \n","__________________________________________________________________________________________________\n","res3d_branch2a (Conv2D)         (None, 28, 28, 128)  65664       activation_19[0][0]              \n","__________________________________________________________________________________________________\n","bn3d_branch2a (BatchNormalizati (None, 28, 28, 128)  512         res3d_branch2a[0][0]             \n","__________________________________________________________________________________________________\n","activation_20 (Activation)      (None, 28, 28, 128)  0           bn3d_branch2a[0][0]              \n","__________________________________________________________________________________________________\n","res3d_branch2b (Conv2D)         (None, 28, 28, 128)  147584      activation_20[0][0]              \n","__________________________________________________________________________________________________\n","bn3d_branch2b (BatchNormalizati (None, 28, 28, 128)  512         res3d_branch2b[0][0]             \n","__________________________________________________________________________________________________\n","activation_21 (Activation)      (None, 28, 28, 128)  0           bn3d_branch2b[0][0]              \n","__________________________________________________________________________________________________\n","res3d_branch2c (Conv2D)         (None, 28, 28, 512)  66048       activation_21[0][0]              \n","__________________________________________________________________________________________________\n","bn3d_branch2c (BatchNormalizati (None, 28, 28, 512)  2048        res3d_branch2c[0][0]             \n","__________________________________________________________________________________________________\n","add_7 (Add)                     (None, 28, 28, 512)  0           bn3d_branch2c[0][0]              \n","                                                                 activation_19[0][0]              \n","__________________________________________________________________________________________________\n","activation_22 (Activation)      (None, 28, 28, 512)  0           add_7[0][0]                      \n","__________________________________________________________________________________________________\n","res4a_branch2a (Conv2D)         (None, 14, 14, 256)  131328      activation_22[0][0]              \n","__________________________________________________________________________________________________\n","bn4a_branch2a (BatchNormalizati (None, 14, 14, 256)  1024        res4a_branch2a[0][0]             \n","__________________________________________________________________________________________________\n","activation_23 (Activation)      (None, 14, 14, 256)  0           bn4a_branch2a[0][0]              \n","__________________________________________________________________________________________________\n","res4a_branch2b (Conv2D)         (None, 14, 14, 256)  590080      activation_23[0][0]              \n","__________________________________________________________________________________________________\n","bn4a_branch2b (BatchNormalizati (None, 14, 14, 256)  1024        res4a_branch2b[0][0]             \n","__________________________________________________________________________________________________\n","activation_24 (Activation)      (None, 14, 14, 256)  0           bn4a_branch2b[0][0]              \n","__________________________________________________________________________________________________\n","res4a_branch2c (Conv2D)         (None, 14, 14, 1024) 263168      activation_24[0][0]              \n","__________________________________________________________________________________________________\n","res4a_branch1 (Conv2D)          (None, 14, 14, 1024) 525312      activation_22[0][0]              \n","__________________________________________________________________________________________________\n","bn4a_branch2c (BatchNormalizati (None, 14, 14, 1024) 4096        res4a_branch2c[0][0]             \n","__________________________________________________________________________________________________\n","bn4a_branch1 (BatchNormalizatio (None, 14, 14, 1024) 4096        res4a_branch1[0][0]              \n","__________________________________________________________________________________________________\n","add_8 (Add)                     (None, 14, 14, 1024) 0           bn4a_branch2c[0][0]              \n","                                                                 bn4a_branch1[0][0]               \n","__________________________________________________________________________________________________\n","activation_25 (Activation)      (None, 14, 14, 1024) 0           add_8[0][0]                      \n","__________________________________________________________________________________________________\n","res4b_branch2a (Conv2D)         (None, 14, 14, 256)  262400      activation_25[0][0]              \n","__________________________________________________________________________________________________\n","bn4b_branch2a (BatchNormalizati (None, 14, 14, 256)  1024        res4b_branch2a[0][0]             \n","__________________________________________________________________________________________________\n","activation_26 (Activation)      (None, 14, 14, 256)  0           bn4b_branch2a[0][0]              \n","__________________________________________________________________________________________________\n","res4b_branch2b (Conv2D)         (None, 14, 14, 256)  590080      activation_26[0][0]              \n","__________________________________________________________________________________________________\n","bn4b_branch2b (BatchNormalizati (None, 14, 14, 256)  1024        res4b_branch2b[0][0]             \n","__________________________________________________________________________________________________\n","activation_27 (Activation)      (None, 14, 14, 256)  0           bn4b_branch2b[0][0]              \n","__________________________________________________________________________________________________\n","res4b_branch2c (Conv2D)         (None, 14, 14, 1024) 263168      activation_27[0][0]              \n","__________________________________________________________________________________________________\n","bn4b_branch2c (BatchNormalizati (None, 14, 14, 1024) 4096        res4b_branch2c[0][0]             \n","__________________________________________________________________________________________________\n","add_9 (Add)                     (None, 14, 14, 1024) 0           bn4b_branch2c[0][0]              \n","                                                                 activation_25[0][0]              \n","__________________________________________________________________________________________________\n","activation_28 (Activation)      (None, 14, 14, 1024) 0           add_9[0][0]                      \n","__________________________________________________________________________________________________\n","res4c_branch2a (Conv2D)         (None, 14, 14, 256)  262400      activation_28[0][0]              \n","__________________________________________________________________________________________________\n","bn4c_branch2a (BatchNormalizati (None, 14, 14, 256)  1024        res4c_branch2a[0][0]             \n","__________________________________________________________________________________________________\n","activation_29 (Activation)      (None, 14, 14, 256)  0           bn4c_branch2a[0][0]              \n","__________________________________________________________________________________________________\n","res4c_branch2b (Conv2D)         (None, 14, 14, 256)  590080      activation_29[0][0]              \n","__________________________________________________________________________________________________\n","bn4c_branch2b (BatchNormalizati (None, 14, 14, 256)  1024        res4c_branch2b[0][0]             \n","__________________________________________________________________________________________________\n","activation_30 (Activation)      (None, 14, 14, 256)  0           bn4c_branch2b[0][0]              \n","__________________________________________________________________________________________________\n","res4c_branch2c (Conv2D)         (None, 14, 14, 1024) 263168      activation_30[0][0]              \n","__________________________________________________________________________________________________\n","bn4c_branch2c (BatchNormalizati (None, 14, 14, 1024) 4096        res4c_branch2c[0][0]             \n","__________________________________________________________________________________________________\n","add_10 (Add)                    (None, 14, 14, 1024) 0           bn4c_branch2c[0][0]              \n","                                                                 activation_28[0][0]              \n","__________________________________________________________________________________________________\n","activation_31 (Activation)      (None, 14, 14, 1024) 0           add_10[0][0]                     \n","__________________________________________________________________________________________________\n","res4d_branch2a (Conv2D)         (None, 14, 14, 256)  262400      activation_31[0][0]              \n","__________________________________________________________________________________________________\n","bn4d_branch2a (BatchNormalizati (None, 14, 14, 256)  1024        res4d_branch2a[0][0]             \n","__________________________________________________________________________________________________\n","activation_32 (Activation)      (None, 14, 14, 256)  0           bn4d_branch2a[0][0]              \n","__________________________________________________________________________________________________\n","res4d_branch2b (Conv2D)         (None, 14, 14, 256)  590080      activation_32[0][0]              \n","__________________________________________________________________________________________________\n","bn4d_branch2b (BatchNormalizati (None, 14, 14, 256)  1024        res4d_branch2b[0][0]             \n","__________________________________________________________________________________________________\n","activation_33 (Activation)      (None, 14, 14, 256)  0           bn4d_branch2b[0][0]              \n","__________________________________________________________________________________________________\n","res4d_branch2c (Conv2D)         (None, 14, 14, 1024) 263168      activation_33[0][0]              \n","__________________________________________________________________________________________________\n","bn4d_branch2c (BatchNormalizati (None, 14, 14, 1024) 4096        res4d_branch2c[0][0]             \n","__________________________________________________________________________________________________\n","add_11 (Add)                    (None, 14, 14, 1024) 0           bn4d_branch2c[0][0]              \n","                                                                 activation_31[0][0]              \n","__________________________________________________________________________________________________\n","activation_34 (Activation)      (None, 14, 14, 1024) 0           add_11[0][0]                     \n","__________________________________________________________________________________________________\n","res4e_branch2a (Conv2D)         (None, 14, 14, 256)  262400      activation_34[0][0]              \n","__________________________________________________________________________________________________\n","bn4e_branch2a (BatchNormalizati (None, 14, 14, 256)  1024        res4e_branch2a[0][0]             \n","__________________________________________________________________________________________________\n","activation_35 (Activation)      (None, 14, 14, 256)  0           bn4e_branch2a[0][0]              \n","__________________________________________________________________________________________________\n","res4e_branch2b (Conv2D)         (None, 14, 14, 256)  590080      activation_35[0][0]              \n","__________________________________________________________________________________________________\n","bn4e_branch2b (BatchNormalizati (None, 14, 14, 256)  1024        res4e_branch2b[0][0]             \n","__________________________________________________________________________________________________\n","activation_36 (Activation)      (None, 14, 14, 256)  0           bn4e_branch2b[0][0]              \n","__________________________________________________________________________________________________\n","res4e_branch2c (Conv2D)         (None, 14, 14, 1024) 263168      activation_36[0][0]              \n","__________________________________________________________________________________________________\n","bn4e_branch2c (BatchNormalizati (None, 14, 14, 1024) 4096        res4e_branch2c[0][0]             \n","__________________________________________________________________________________________________\n","add_12 (Add)                    (None, 14, 14, 1024) 0           bn4e_branch2c[0][0]              \n","                                                                 activation_34[0][0]              \n","__________________________________________________________________________________________________\n","activation_37 (Activation)      (None, 14, 14, 1024) 0           add_12[0][0]                     \n","__________________________________________________________________________________________________\n","res4f_branch2a (Conv2D)         (None, 14, 14, 256)  262400      activation_37[0][0]              \n","__________________________________________________________________________________________________\n","bn4f_branch2a (BatchNormalizati (None, 14, 14, 256)  1024        res4f_branch2a[0][0]             \n","__________________________________________________________________________________________________\n","activation_38 (Activation)      (None, 14, 14, 256)  0           bn4f_branch2a[0][0]              \n","__________________________________________________________________________________________________\n","res4f_branch2b (Conv2D)         (None, 14, 14, 256)  590080      activation_38[0][0]              \n","__________________________________________________________________________________________________\n","bn4f_branch2b (BatchNormalizati (None, 14, 14, 256)  1024        res4f_branch2b[0][0]             \n","__________________________________________________________________________________________________\n","activation_39 (Activation)      (None, 14, 14, 256)  0           bn4f_branch2b[0][0]              \n","__________________________________________________________________________________________________\n","res4f_branch2c (Conv2D)         (None, 14, 14, 1024) 263168      activation_39[0][0]              \n","__________________________________________________________________________________________________\n","bn4f_branch2c (BatchNormalizati (None, 14, 14, 1024) 4096        res4f_branch2c[0][0]             \n","__________________________________________________________________________________________________\n","add_13 (Add)                    (None, 14, 14, 1024) 0           bn4f_branch2c[0][0]              \n","                                                                 activation_37[0][0]              \n","__________________________________________________________________________________________________\n","activation_40 (Activation)      (None, 14, 14, 1024) 0           add_13[0][0]                     \n","__________________________________________________________________________________________________\n","res5a_branch2a (Conv2D)         (None, 7, 7, 512)    524800      activation_40[0][0]              \n","__________________________________________________________________________________________________\n","bn5a_branch2a (BatchNormalizati (None, 7, 7, 512)    2048        res5a_branch2a[0][0]             \n","__________________________________________________________________________________________________\n","activation_41 (Activation)      (None, 7, 7, 512)    0           bn5a_branch2a[0][0]              \n","__________________________________________________________________________________________________\n","res5a_branch2b (Conv2D)         (None, 7, 7, 512)    2359808     activation_41[0][0]              \n","__________________________________________________________________________________________________\n","bn5a_branch2b (BatchNormalizati (None, 7, 7, 512)    2048        res5a_branch2b[0][0]             \n","__________________________________________________________________________________________________\n","activation_42 (Activation)      (None, 7, 7, 512)    0           bn5a_branch2b[0][0]              \n","__________________________________________________________________________________________________\n","res5a_branch2c (Conv2D)         (None, 7, 7, 2048)   1050624     activation_42[0][0]              \n","__________________________________________________________________________________________________\n","res5a_branch1 (Conv2D)          (None, 7, 7, 2048)   2099200     activation_40[0][0]              \n","__________________________________________________________________________________________________\n","bn5a_branch2c (BatchNormalizati (None, 7, 7, 2048)   8192        res5a_branch2c[0][0]             \n","__________________________________________________________________________________________________\n","bn5a_branch1 (BatchNormalizatio (None, 7, 7, 2048)   8192        res5a_branch1[0][0]              \n","__________________________________________________________________________________________________\n","add_14 (Add)                    (None, 7, 7, 2048)   0           bn5a_branch2c[0][0]              \n","                                                                 bn5a_branch1[0][0]               \n","__________________________________________________________________________________________________\n","activation_43 (Activation)      (None, 7, 7, 2048)   0           add_14[0][0]                     \n","__________________________________________________________________________________________________\n","res5b_branch2a (Conv2D)         (None, 7, 7, 512)    1049088     activation_43[0][0]              \n","__________________________________________________________________________________________________\n","bn5b_branch2a (BatchNormalizati (None, 7, 7, 512)    2048        res5b_branch2a[0][0]             \n","__________________________________________________________________________________________________\n","activation_44 (Activation)      (None, 7, 7, 512)    0           bn5b_branch2a[0][0]              \n","__________________________________________________________________________________________________\n","res5b_branch2b (Conv2D)         (None, 7, 7, 512)    2359808     activation_44[0][0]              \n","__________________________________________________________________________________________________\n","bn5b_branch2b (BatchNormalizati (None, 7, 7, 512)    2048        res5b_branch2b[0][0]             \n","__________________________________________________________________________________________________\n","activation_45 (Activation)      (None, 7, 7, 512)    0           bn5b_branch2b[0][0]              \n","__________________________________________________________________________________________________\n","res5b_branch2c (Conv2D)         (None, 7, 7, 2048)   1050624     activation_45[0][0]              \n","__________________________________________________________________________________________________\n","bn5b_branch2c (BatchNormalizati (None, 7, 7, 2048)   8192        res5b_branch2c[0][0]             \n","__________________________________________________________________________________________________\n","add_15 (Add)                    (None, 7, 7, 2048)   0           bn5b_branch2c[0][0]              \n","                                                                 activation_43[0][0]              \n","__________________________________________________________________________________________________\n","activation_46 (Activation)      (None, 7, 7, 2048)   0           add_15[0][0]                     \n","__________________________________________________________________________________________________\n","res5c_branch2a (Conv2D)         (None, 7, 7, 512)    1049088     activation_46[0][0]              \n","__________________________________________________________________________________________________\n","bn5c_branch2a (BatchNormalizati (None, 7, 7, 512)    2048        res5c_branch2a[0][0]             \n","__________________________________________________________________________________________________\n","activation_47 (Activation)      (None, 7, 7, 512)    0           bn5c_branch2a[0][0]              \n","__________________________________________________________________________________________________\n","res5c_branch2b (Conv2D)         (None, 7, 7, 512)    2359808     activation_47[0][0]              \n","__________________________________________________________________________________________________\n","bn5c_branch2b (BatchNormalizati (None, 7, 7, 512)    2048        res5c_branch2b[0][0]             \n","__________________________________________________________________________________________________\n","activation_48 (Activation)      (None, 7, 7, 512)    0           bn5c_branch2b[0][0]              \n","__________________________________________________________________________________________________\n","res5c_branch2c (Conv2D)         (None, 7, 7, 2048)   1050624     activation_48[0][0]              \n","__________________________________________________________________________________________________\n","bn5c_branch2c (BatchNormalizati (None, 7, 7, 2048)   8192        res5c_branch2c[0][0]             \n","__________________________________________________________________________________________________\n","add_16 (Add)                    (None, 7, 7, 2048)   0           bn5c_branch2c[0][0]              \n","                                                                 activation_46[0][0]              \n","__________________________________________________________________________________________________\n","activation_49 (Activation)      (None, 7, 7, 2048)   0           add_16[0][0]                     \n","__________________________________________________________________________________________________\n","avg_pool (AveragePooling2D)     (None, 1, 1, 2048)   0           activation_49[0][0]              \n","__________________________________________________________________________________________________\n","flatten_1 (Flatten)             (None, 2048)         0           avg_pool[0][0]                   \n","__________________________________________________________________________________________________\n","fc1000 (Dense)                  (None, 1000)         2049000     flatten_1[0][0]                  \n","==================================================================================================\n","Total params: 25,636,712\n","Trainable params: 25,583,592\n","Non-trainable params: 53,120\n","__________________________________________________________________________________________________\n"],"name":"stdout"}]},{"metadata":{"id":"LpTRIv512o_l","col
…
6,"user":{"displayName":"Thạch Hoàng Ngọc","photoUrl":"https://lh3.googleusercontent.com/a/default-user=s128","userId":"101752767182448615555"}}},"cell_type":"code","source":["model.summary()"],"execution_count":53,"outputs":[{"output_type":"stream","text":["__________________________________________________________________________________________________\n","Layer (type)                    Output Shape         Param #     Connected to                     \n","==================================================================================================\n","input_21 (InputLayer)           (None, 224, 224, 3)  0                                            \n","__________________________________________________________________________________________________\n","conv1_pad (ZeroPadding2D)       (None, 230, 230, 3)  0           input_21[0][0]                   \n","__________________________________________________________________________________________________\n","conv1 (Conv2D)                  (None, 112, 112, 64) 9472        conv1_pad[0][0]                  \n","__________________________________________________________________________________________________\n","bn_conv1 (BatchNormalization)   (None, 112, 112, 64) 256         conv1[0][0]                      \n","__________________________________________________________________________________________________\n","activation_834 (Activation)     (None, 112, 112, 64) 0           bn_conv1[0][0]                   \n","__________________________________________________________________________________________________\n","max_pooling2d_18 (MaxPooling2D) (None, 55, 55, 64)   0           activation_834[0][0]             \n","__________________________________________________________________________________________________\n","res2a_branch2a (Conv2D)         (None, 55, 55, 64)   4160        max_pooling2d_18[0][0]           \n","__________________________________________________________________________________________________\n","bn2a_branch2a (BatchNormalizati (None, 55, 55, 64)   256         res2a_branch2a[0][0]             \n","__________________________________________________________________________________________________\n","activation_835 (Activation)     (None, 55, 55, 64)   0           bn2a_branch2a[0][0]              \n","__________________________________________________________________________________________________\n","res2a_branch2b (Conv2D)         (None, 55, 55, 64)   36928       activation_835[0][0]             \n","__________________________________________________________________________________________________\n","bn2a_branch2b (BatchNormalizati (None, 55, 55, 64)   256         res2a_branch2b[0][0]             \n","__________________________________________________________________________________________________\n","activation_836 (Activation)     (None, 55, 55, 64)   0           bn2a_branch2b[0][0]              \n","__________________________________________________________________________________________________\n","res2a_branch2c (Conv2D)         (None, 55, 55, 256)  16640       activation_836[0][0]             \n","__________________________________________________________________________________________________\n","res2a_branch1 (Conv2D)          (None, 55, 55, 256)  16640       max_pooling2d_18[0][0]           \n","__________________________________________________________________________________________________\n","bn2a_branch2c (BatchNormalizati (None, 55, 55, 256)  1024        res2a_branch2c[0][0]             \n","__________________________________________________________________________________________________\n","bn2a_branch1 (BatchNormalizatio (None, 55, 55, 256)  1024        res2a_branch1[0][0]              \n","__________________________________________________________________________________________________\n","add_273 (Add)                   (None, 55, 55, 256)  0           bn2a_branch2c[0][0]              \n","                                                                 bn2a_branch1[0][0]               \n","__________________________________________________________________________________________________\n","activation_837 (Activation)     (None, 55, 55, 256)  0           add_273[0][0]                    \n","__________________________________________________________________________________________________\n","res2b_branch2a (Conv2D)         (None, 55, 55, 64)   16448       activation_837[0][0]             \n","__________________________________________________________________________________________________\n","bn2b_branch2a (BatchNormalizati (None, 55, 55, 64)   256         res2b_branch2a[0][0]             \n","__________________________________________________________________________________________________\n","activation_838 (Activation)     (None, 55, 55, 64)   0           bn2b_branch2a[0][0]              \n","__________________________________________________________________________________________________\n","res2b_branch2b (Conv2D)         (None, 55, 55, 64)   36928       activation_838[0][0]             \n","__________________________________________________________________________________________________\n","bn2b_branch2b (BatchNormalizati (None, 55, 55, 64)   256         res2b_branch2b[0][0]             \n","__________________________________________________________________________________________________\n","activation_839 (Activation)     (None, 55, 55, 64)   0           bn2b_branch2b[0][0]              \n","__________________________________________________________________________________________________\n","res2b_branch2c (Conv2D)         (None, 55, 55, 256)  16640       activation_839[0][0]             \n","__________________________________________________________________________________________________\n","bn2b_branch2c (BatchNormalizati (None, 55, 55, 256)  1024        res2b_branch2c[0][0]             \n","__________________________________________________________________________________________________\n","add_274 (Add)                   (None, 55, 55, 256)  0           bn2b_branch2c[0][0]              \n","                                                                 activation_837[0][0]             \n","__________________________________________________________________________________________________\n","activation_840 (Activation)     (None, 55, 55, 256)  0           add_274[0][0]                    \n","__________________________________________________________________________________________________\n","res2c_branch2a (Conv2D)         (None, 55, 55, 64)   16448       activation_840[0][0]             \n","__________________________________________________________________________________________________\n","bn2c_branch2a (BatchNormalizati (None, 55, 55, 64)   256         res2c_branch2a[0][0]             \n","__________________________________________________________________________________________________\n","activation_841 (Activation)     (None, 55, 55, 64)   0           bn2c_branch2a[0][0]              \n","__________________________________________________________________________________________________\n","res2c_branch2b (Conv2D)         (None, 55, 55, 64)   36928       activation_841[0][0]             \n","__________________________________________________________________________________________________\n","bn2c_branch2b (BatchNormalizati (None, 55, 55, 64)   256         res2c_branch2b[0][0]             \n","__________________________________________________________________________________________________\n","activation_842 (Activation)     (None, 55, 55, 64)   0           bn2c_branch2b[0][0]              \n","__________________________________________________________________________________________________\n","res2c_branch2c (Conv2D)         (None, 55, 55, 256)  16640       activation_842[0][0]             \n","__________________________________________________________________________________________________\n","bn2c_branch2c (BatchNormalizati (None, 55, 55, 256)  1024        res2c_branch2c[0][0]             \n","__________________________________________________________________________________________________\n","add_275 (Add)                   (None, 55, 55, 256)  0           bn2c_branch2c[0][0]              \n","                                                                 activation_840[0][0]             \n","__________________________________________________________________________________________________\n","activation_843 (Activation)     (None, 55, 55, 256)  0           add_275[0][0]                    \n","__________________________________________________________________________________________________\n","res3a_branch2a (Conv2D)         (None, 28, 28, 128)  32896       activation_843[0][0]             \n","__________________________________________________________________________________________________\n","bn3a_branch2a (BatchNormalizati (None, 28, 28, 128)  512         res3a_branch2a[0][0]             \n","__________________________________________________________________________________________________\n","activation_844 (Activation)     (None, 28, 28, 128)  0           bn3a_branch2a[0][0]              \n","__________________________________________________________________________________________________\n","res3a_branch2b (Conv2D)         (None, 28, 28, 128)  147584      activation_844[0][0]             \n","__________________________________________________________________________________________________\n","bn3a_branch2b (BatchNormalizati (None, 28, 28, 128)  512         res3a_branch2b[0][0]             \n","__________________________________________________________________________________________________\n","activation_845 (Activation)     (None, 28, 28, 128)  0           bn3a_branch2b[0][0]              \n","__________________________________________________________________________________________________\n","res3a_branch2c (Conv2D)         (None, 28, 28, 512)  66048       activation_845[0][0]             \n","__________________________________________________________________________________________________\n","res3a_branch1 (Conv2D)          (None, 28, 28, 512)  131584      activation_843[0][0]             \n","__________________________________________________________________________________________________\n","bn3a_branch2c (BatchNormalizati (None, 28, 28, 512)  2048        res3a_branch2c[0][0]             \n","__________________________________________________________________________________________________\n","bn3a_branch1 (BatchNormalizatio (None, 28, 28, 512)  2048        res3a_branch1[0][0]              \n","__________________________________________________________________________________________________\n","add_276 (Add)                   (None, 28, 28, 512)  0           bn3a_branch2c[0][0]              \n","                                                                 bn3a_branch1[0][0]               \n","__________________________________________________________________________________________________\n","activation_846 (Activation)     (None, 28, 28, 512)  0           add_276[0][0]                    \n","__________________________________________________________________________________________________\n","res3b_branch2a (Conv2D)         (None, 28, 28, 128)  65664       activation_846[0][0]             \n","__________________________________________________________________________________________________\n","bn3b_branch2a (BatchNormalizati (None, 28, 28, 128)  512         res3b_branch2a[0][0]             \n","__________________________________________________________________________________________________\n","activation_847 (Activation)     (None, 28, 28, 128)  0           bn3b_branch2a[0][0]              \n","__________________________________________________________________________________________________\n","res3b_branch2b (Conv2D)         (None, 28, 28, 128)  147584      activation_847[0][0]             \n","__________________________________________________________________________________________________\n","bn3b_branch2b (BatchNormalizati (None, 28, 28, 128)  512         res3b_branch2b[0][0]             \n","__________________________________________________________________________________________________\n","activation_848 (Activation)     (None, 28, 28, 128)  0           bn3b_branch2b[0][0]              \n","__________________________________________________________________________________________________\n","res3b_branch2c (Conv2D)         (None, 28, 28, 512)  66048       activation_848[0][0]             \n","__________________________________________________________________________________________________\n","bn3b_branch2c (BatchNormalizati (None, 28, 28, 512)  2048        res3b_branch2c[0][0]             \n","__________________________________________________________________________________________________\n","add_277 (Add)                   (None, 28, 28, 512)  0           bn3b_branch2c[0][0]              \n","                                                                 activation_846[0][0]             \n","__________________________________________________________________________________________________\n","activation_849 (Activation)     (None, 28, 28, 512)  0           add_277[0][0]                    \n","__________________________________________________________________________________________________\n","res3c_branch2a (Conv2D)         (None, 28, 28, 128)  65664       activation_849[0][0]             \n","__________________________________________________________________________________________________\n","bn3c_branch2a (BatchNormalizati (None, 28, 28, 128)  512         res3c_branch2a[0][0]             \n","__________________________________________________________________________________________________\n","activation_850 (Activation)     (None, 28, 28, 128)  0           bn3c_branch2a[0][0]              \n","__________________________________________________________________________________________________\n","res3c_branch2b (Conv2D)         (None, 28, 28, 128)  147584      activation_850[0][0]             \n","__________________________________________________________________________________________________\n","bn3c_branch2b (BatchNormalizati (None, 28, 28, 128)  512         res3c_branch2b[0][0]             \n","__________________________________________________________________________________________________\n","activation_851 (Activation)     (None, 28, 28, 128)  0           bn3c_branch2b[0][0]              \n","__________________________________________________________________________________________________\n","res3c_branch2c (Conv2D)         (None, 28, 28, 512)  66048       activation_851[0][0]             \n","__________________________________________________________________________________________________\n","bn3c_branch2c (BatchNormalizati (None, 28, 28, 512)  2048        res3c_branch2c[0][0]             \n","__________________________________________________________________________________________________\n","add_278 (Add)                   (None, 28, 28, 512)  0           bn3c_branch2c[0][0]              \n","                                                                 activation_849[0][0]             \n","__________________________________________________________________________________________________\n","activation_852 (Activation)     (None, 28, 28, 512)  0           add_278[0][0]                    \n","__________________________________________________________________________________________________\n","res3d_branch2a (Conv2D)         (None, 28, 28, 128)  65664       activation_852[0][0]             \n","__________________________________________________________________________________________________\n","bn3d_branch2a (BatchNormalizati (None, 28, 28, 128)  512         res3d_branch2a[0][0]             \n","__________________________________________________________________________________________________\n","activation_853 (Activation)     (None, 28, 28, 128)  0           bn3d_branch2a[0][0]              \n","__________________________________________________________________________________________________\n","res3d_branch2b (Conv2D)         (None, 28, 28, 128)  147584      activation_853[0][0]             \n","__________________________________________________________________________________________________\n","bn3d_branch2b (BatchNormalizati (None, 28, 28, 128)  512         res3d_branch2b[0][0]             \n","__________________________________________________________________________________________________\n","activation_854 (Activation)     (None, 28, 28, 128)  0           bn3d_branch2b[0][0]              \n","__________________________________________________________________________________________________\n","res3d_branch2c (Conv2D)         (None, 28, 28, 512)  66048       activation_854[0][0]             \n","__________________________________________________________________________________________________\n","bn3d_branch2c (BatchNormalizati (None, 28, 28, 512)  2048        res3d_branch2c[0][0]             \n","__________________________________________________________________________________________________\n","add_279 (Add)                   (None, 28, 28, 512)  0           bn3d_branch2c[0][0]              \n","                                                                 activation_852[0][0]             \n","__________________________________________________________________________________________________\n","activation_855 (Activation)     (None, 28, 28, 512)  0           add_279[0][0]                    \n","__________________________________________________________________________________________________\n","res4a_branch2a (Conv2D)         (None, 14, 14, 256)  131328      activation_855[0][0]             \n","__________________________________________________________________________________________________\n","bn4a_branch2a (BatchNormalizati (None, 14, 14, 256)  1024        res4a_branch2a[0][0]             \n","__________________________________________________________________________________________________\n","activation_856 (Activation)     (None, 14, 14, 256)  0           bn4a_branch2a[0][0]              \n","__________________________________________________________________________________________________\n","res4a_branch2b (Conv2D)         (None, 14, 14, 256)  590080      activation_856[0][0]             \n","__________________________________________________________________________________________________\n","bn4a_branch2b (BatchNormalizati (None, 14, 14, 256)  1024        res4a_branch2b[0][0]             \n","__________________________________________________________________________________________________\n","activation_857 (Activation)     (None, 14, 14, 256)  0           bn4a_branch2b[0][0]              \n","__________________________________________________________________________________________________\n","res4a_branch2c (Conv2D)         (None, 14, 14, 1024) 263168      activation_857[0][0]             \n","__________________________________________________________________________________________________\n","res4a_branch1 (Conv2D)          (None, 14, 14, 1024) 525312      activation_855[0][0]             \n","__________________________________________________________________________________________________\n","bn4a_branch2c (BatchNormalizati (None, 14, 14, 1024) 4096        res4a_branch2c[0][0]             \n","__________________________________________________________________________________________________\n","bn4a_branch1 (BatchNormalizatio (None, 14, 14, 1024) 4096        res4a_branch1[0][0]              \n","__________________________________________________________________________________________________\n","add_280 (Add)                   (None, 14, 14, 1024) 0           bn4a_branch2c[0][0]              \n","                                                                 bn4a_branch1[0][0]               \n","__________________________________________________________________________________________________\n","activation_858 (Activation)     (None, 14, 14, 1024) 0           add_280[0][0]                    \n","__________________________________________________________________________________________________\n","res4b_branch2a (Conv2D)         (None, 14, 14, 256)  262400      activation_858[0][0]             \n","__________________________________________________________________________________________________\n","bn4b_branch2a (BatchNormalizati (None, 14, 14, 256)  1024        res4b_branch2a[0][0]             \n","__________________________________________________________________________________________________\n","activation_859 (Activation)     (None, 14, 14, 256)  0           bn4b_branch2a[0][0]              \n","__________________________________________________________________________________________________\n","res4b_branch2b (Conv2D)         (None, 14, 14, 256)  590080      activation_859[0][0]             \n","__________________________________________________________________________________________________\n","bn4b_branch2b (BatchNormalizati (None, 14, 14, 256)  1024        res4b_branch2b[0][0]             \n","__________________________________________________________________________________________________\n","activation_860 (Activation)     (None, 14, 14, 256)  0           bn4b_branch2b[0][0]              \n","__________________________________________________________________________________________________\n","res4b_branch2c (Conv2D)         (None, 14, 14, 1024) 263168      activation_860[0][0]             \n","__________________________________________________________________________________________________\n","bn4b_branch2c (BatchNormalizati (None, 14, 14, 1024) 4096        res4b_branch2c[0][0]             \n","__________________________________________________________________________________________________\n","add_281 (Add)                   (None, 14, 14, 1024) 0           bn4b_branch2c[0][0]              \n","                                                                 activation_858[0][0]             \n","__________________________________________________________________________________________________\n","activation_861 (Activation)     (None, 14, 14, 1024) 0           add_281[0][0]                    \n","__________________________________________________________________________________________________\n","res4c_branch2a (Conv2D)         (None, 14, 14, 256)  262400      activation_861[0][0]             \n","__________________________________________________________________________________________________\n","bn4c_branch2a (BatchNormalizati (None, 14, 14, 256)  1024        res4c_branch2a[0][0]             \n","__________________________________________________________________________________________________\n","activation_862 (Activation)     (None, 14, 14, 256)  0           bn4c_branch2a[0][0]              \n","__________________________________________________________________________________________________\n","res4c_branch2b (Conv2D)         (None, 14, 14, 256)  590080      activation_862[0][0]             \n","__________________________________________________________________________________________________\n","bn4c_branch2b (BatchNormalizati (None, 14, 14, 256)  1024        res4c_branch2b[0][0]             \n","__________________________________________________________________________________________________\n","activation_863 (Activation)     (None, 14, 14, 256)  0           bn4c_branch2b[0][0]              \n","__________________________________________________________________________________________________\n","res4c_branch2c (Conv2D)         (None, 14, 14, 1024) 263168      activation_863[0][0]             \n","__________________________________________________________________________________________________\n","bn4c_branch2c (BatchNormalizati (None, 14, 14, 1024) 4096        res4c_branch2c[0][0]             \n","__________________________________________________________________________________________________\n","add_282 (Add)                   (None, 14, 14, 1024) 0           bn4c_branch2c[0][0]              \n","                                                                 activation_861[0][0]             \n","__________________________________________________________________________________________________\n","activation_864 (Activation)     (None, 14, 14, 1024) 0           add_282[0][0]                    \n","__________________________________________________________________________________________________\n","res4d_branch2a (Conv2D)         (None, 14, 14, 256)  262400      activation_864[0][0]             \n","__________________________________________________________________________________________________\n","bn4d_branch2a (BatchNormalizati (None, 14, 14, 256)  1024        res4d_branch2a[0][0]             \n","__________________________________________________________________________________________________\n","activation_865 (Activation)     (None, 14, 14, 256)  0           bn4d_branch2a[0][0]              \n","__________________________________________________________________________________________________\n","res4d_branch2b (Conv2D)         (None, 14, 14, 256)  590080      activation_865[0][0]             \n","__________________________________________________________________________________________________\n","bn4d_branch2b (BatchNormalizati (None, 14, 14, 256)  1024        res4d_branch2b[0][0]             \n","__________________________________________________________________________________________________\n","activation_866 (Activation)     (None, 14, 14, 256)  0           bn4d_branch2b[0][0]              \n","__________________________________________________________________________________________________\n","res4d_branch2c (Conv2D)         (None, 14, 14, 1024) 263168      activation_866[0][0]             \n","__________________________________________________________________________________________________\n","bn4d_branch2c (BatchNormalizati (None, 14, 14, 1024) 4096        res4d_branch2c[0][0]             \n","__________________________________________________________________________________________________\n","add_283 (Add)                   (None, 14, 14, 1024) 0           bn4d_branch2c[0][0]              \n","                                                                 activation_864[0][0]             \n","__________________________________________________________________________________________________\n","activation_867 (Activation)     (None, 14, 14, 1024) 0           add_283[0][0]                    \n","__________________________________________________________________________________________________\n","res4e_branch2a (Conv2D)         (None, 14, 14, 256)  262400      activation_867[0][0]             \n","__________________________________________________________________________________________________\n","bn4e_branch2a (BatchNormalizati (None, 14, 14, 256)  1024        res4e_branch2a[0][0]             \n","__________________________________________________________________________________________________\n","activation_868 (Activation)     (None, 14, 14, 256)  0           bn4e_branch2a[0][0]              \n","__________________________________________________________________________________________________\n","res4e_branch2b (Conv2D)         (None, 14, 14, 256)  590080      activation_868[0][0]             \n","__________________________________________________________________________________________________\n","bn4e_branch2b (BatchNormalizati (None, 14, 14, 256)  1024        res4e_branch2b[0][0]             \n","__________________________________________________________________________________________________\n","activation_869 (Activation)     (None, 14, 14, 256)  0           bn4e_branch2b[0][0]              \n","__________________________________________________________________________________________________\n","res4e_branch2c (Conv2D)         (None, 14, 14, 1024) 263168      activation_869[0][0]             \n","__________________________________________________________________________________________________\n","bn4e_branch2c (BatchNormalizati (None, 14, 14, 1024) 4096        res4e_branch2c[0][0]             \n","__________________________________________________________________________________________________\n","add_284 (Add)                   (None, 14, 14, 1024) 0           bn4e_branch2c[0][0]              \n","                                                                 activation_867[0][0]             \n","__________________________________________________________________________________________________\n","activation_870 (Activation)     (None, 14, 14, 1024) 0           add_284[0][0]                    \n","__________________________________________________________________________________________________\n","res4f_branch2a (Conv2D)         (None, 14, 14, 256)  262400      activation_870[0][0]             \n","__________________________________________________________________________________________________\n","bn4f_branch2a (BatchNormalizati (None, 14, 14, 256)  1024        res4f_branch2a[0][0]             \n","__________________________________________________________________________________________________\n","activation_871 (Activation)     (None, 14, 14, 256)  0           bn4f_branch2a[0][0]              \n","__________________________________________________________________________________________________\n","res4f_branch2b (Conv2D)         (None, 14, 14, 256)  590080      activation_871[0][0]             \n","__________________________________________________________________________________________________\n","bn4f_branch2b (BatchNormalizati (None, 14, 14, 256)  1024        res4f_branch2b[0][0]             \n","__________________________________________________________________________________________________\n","activation_872 (Activation)     (None, 14, 14, 256)  0           bn4f_branch2b[0][0]              \n","__________________________________________________________________________________________________\n","res4f_branch2c (Conv2D)         (None, 14, 14, 1024) 263168      activation_872[0][0]             \n","__________________________________________________________________________________________________\n","bn4f_branch2c (BatchNormalizati (None, 14, 14, 1024) 4096        res4f_branch2c[0][0]             \n","__________________________________________________________________________________________________\n","add_285 (Add)                   (None, 14, 14, 1024) 0           bn4f_branch2c[0][0]              \n","                                                                 activation_870[0][0]             \n","__________________________________________________________________________________________________\n","activation_873 (Activation)     (None, 14, 14, 1024) 0           add_285[0][0]                    \n","__________________________________________________________________________________________________\n","res5a_branch2a (Conv2D)         (None, 7, 7, 512)    524800      activation_873[0][0]             \n","__________________________________________________________________________________________________\n","bn5a_branch2a (BatchNormalizati (None, 7, 7, 512)    2048        res5a_branch2a[0][0]             \n","__________________________________________________________________________________________________\n","activation_874 (Activation)     (None, 7, 7, 512)    0           bn5a_branch2a[0][0]              \n","__________________________________________________________________________________________________\n","res5a_branch2b (Conv2D)         (None, 7, 7, 512)    2359808     activation_874[0][0]             \n","__________________________________________________________________________________________________\n","bn5a_branch2b (BatchNormalizati (None, 7, 7, 512)    2048        res5a_branch2b[0][0]             \n","__________________________________________________________________________________________________\n","activation_875 (Activation)     (None, 7, 7, 512)    0           bn5a_branch2b[0][0]              \n","__________________________________________________________________________________________________\n","res5a_branch2c (Conv2D)         (None, 7, 7, 2048)   1050624     activation_875[0][0]             \n","__________________________________________________________________________________________________\n","res5a_branch1 (Conv2D)          (None, 7, 7, 2048)   2099200     activation_873[0][0]             \n","__________________________________________________________________________________________________\n","bn5a_branch2c (BatchNormalizati (None, 7, 7, 2048)   8192        res5a_branch2c[0][0]             \n","__________________________________________________________________________________________________\n","bn5a_branch1 (BatchNormalizatio (None, 7, 7, 2048)   8192        res5a_branch1[0][0]              \n","__________________________________________________________________________________________________\n","add_286 (Add)                   (None, 7, 7, 2048)   0           bn5a_branch2c[0][0]              \n","                                                                 bn5a_branch1[0][0]               \n","__________________________________________________________________________________________________\n","activation_876 (Activation)     (None, 7, 7, 2048)   0           add_286[0][0]                    \n","__________________________________________________________________________________________________\n","res5b_branch2a (Conv2D)         (None, 7, 7, 512)    1049088     activation_876[0][0]             \n","__________________________________________________________________________________________________\n","bn5b_branch2a (BatchNormalizati (None, 7, 7, 512)    2048        res5b_branch2a[0][0]             \n","__________________________________________________________________________________________________\n","activation_877 (Activation)     (None, 7, 7, 512)    0           bn5b_branch2a[0][0]              \n","__________________________________________________________________________________________________\n","res5b_branch2b (Conv2D)         (None, 7, 7, 512)    2359808     activation_877[0][0]             \n","__________________________________________________________________________________________________\n","bn5b_branch2b (BatchNormalizati (None, 7, 7, 512)    2048        res5b_branch2b[0][0]             \n","__________________________________________________________________________________________________\n","activation_878 (Activation)     (None, 7, 7, 512)    0           bn5b_branch2b[0][0]              \n","__________________________________________________________________________________________________\n","res5b_branch2c (Conv2D)         (None, 7, 7, 2048)   1050624     activation_878[0][0]             \n","__________________________________________________________________________________________________\n","bn5b_branch2c (BatchNormalizati (None, 7, 7, 2048)   8192        res5b_branch2c[0][0]             \n","__________________________________________________________________________________________________\n","add_287 (Add)                   (None, 7, 7, 2048)   0           bn5b_branch2c[0][0]              \n","                                                                 activation_876[0][0]             \n","__________________________________________________________________________________________________\n","activation_879 (Activation)     (None, 7, 7, 2048)   0           add_287[0][0]                    \n","__________________________________________________________________________________________________\n","res5c_branch2a (Conv2D)         (None, 7, 7, 512)    1049088     activation_879[0][0]             \n","__________________________________________________________________________________________________\n","bn5c_branch2a (BatchNormalizati (None, 7, 7, 512)    2048        res5c_branch2a[0][0]             \n","__________________________________________________________________________________________________\n","activation_880 (Activation)     (None, 7, 7, 512)    0           bn5c_branch2a[0][0]              \n","__________________________________________________________________________________________________\n","res5c_branch2b (Conv2D)         (None, 7, 7, 512)    2359808     activation_880[0][0]             \n","__________________________________________________________________________________________________\n","bn5c_branch2b (BatchNormalizati (None, 7, 7, 512)    2048        res5c_branch2b[0][0]             \n","__________________________________________________________________________________________________\n","activation_881 (Activation)     (None, 7, 7, 512)    0           bn5c_branch2b[0][0]              \n","__________________________________________________________________________________________________\n","res5c_branch2c (Conv2D)         (None, 7, 7, 2048)   1050624     activation_881[0][0]             \n","__________________________________________________________________________________________________\n","bn5c_branch2c (BatchNormalizati (None, 7, 7, 2048)   8192        res5c_branch2c[0][0]             \n","__________________________________________________________________________________________________\n","add_288 (Add)                   (None, 7, 7, 2048)   0           bn5c_branch2c[0][0]              \n","                                                                 activation_879[0][0]             \n","__________________________________________________________________________________________________\n","activation_882 (Activation)     (None, 7, 7, 2048)   0           add_288[0][0]                    \n","__________________________________________________________________________________________________\n","avg_pool (AveragePooling2D)     (None, 1, 1, 2048)   0           activation_882[0][0]             \n","__________________________________________________________________________________________________\n","flatten_17 (Flatten)            (None, 2048)         0           avg_pool[0][0]                   \n","__________________________________________________________________________________________________\n","dense_11 (Dense)                (None, 3)            6147        flatten_17[0][0]                 \n","==================================================================================================\n","Total params: 23,593,859\n","Trainable params: 23,540,739\n","Non-trainable params: 53,120\n","__________________________________________________________________________________________________\n"],"name":"stdout"}]},{"metadata":{"id":"yPNt7q4I_p92","
…
